…
        "outputId": "aa5d613c-1a6a-4246-f6ec-84cdca5bbcfb"
      },
      "outputs": [
        {
          "output_type": "execute_result",
          "data": {
            "text/plain": [
              "============================================================================================================\n",
              "Layer (type (var_name))                  Input Shape       Output Shape      Param #           Trainable\n",
              "============================================================================================================\n",
              "ResNet (ResNet)                          [4, 3, 224, 224]  [4, 1000]         --                True\n",
              "├─Conv2d (conv1)                         [4, 3, 224, 224]  [4, 64, 112, 112] 9,408             True\n",
              "├─BatchNorm2d (bn1)                      [4, 64, 112, 112] [4, 64, 112, 112] 128               True\n",
              "├─ReLU (relu)                            [4, 64, 112, 112] [4, 64, 112, 112] --                --\n",
              "├─MaxPool2d (maxpool)                    [4, 64, 112, 112] [4, 64, 56, 56]   --                --\n",
              "├─Sequential (layer1)                    [4, 64, 56, 56]   [4, 256, 56, 56]  --                True\n",
              "│    └─Bottleneck (0)                    [4, 64, 56, 56]   [4, 256, 56, 56]  --                True\n",
              "│    │    └─Conv2d (conv1)               [4, 64, 56, 56]   [4, 64, 56, 56]   4,096             True\n",
              "│    │    └─BatchNorm2d (bn1)            [4, 64, 56, 56]   [4, 64, 56, 56]   128               True\n",
              "│    │    └─ReLU (relu)                  [4, 64, 56, 56]   [4, 64, 56, 56]   --                --\n",
              "│    │    └─Conv2d (conv2)               [4, 64, 56, 56]   [4, 64, 56, 56]   36,864            True\n",
              "│    │    └─BatchNorm2d (bn2)            [4, 64, 56, 56]   [4, 64, 56, 56]   128               True\n",
              "│    │    └─ReLU (relu)                  [4, 64, 56, 56]   [4, 64, 56, 56]   --                --\n",
              "│    │    └─Conv2d (conv3)               [4, 64, 56, 56]   [4, 256, 56, 56]  16,384            True\n",
              "│    │    └─BatchNorm2d (bn3)            [4, 256, 56, 56]  [4, 256, 56, 56]  512               True\n",
              "│    │    └─Sequential (downsample)      [4, 64, 56, 56]   [4, 256, 56, 56]  16,896            True\n",
              "│    │    └─ReLU (relu)                  [4, 256, 56, 56]  [4, 256, 56, 56]  --                --\n",
              "│    └─Bottleneck (1)                    [4, 256, 56, 56]  [4, 256, 56, 56]  --                True\n",
              "│    │    └─Conv2d (conv1)               [4, 256, 56, 56]  [4, 64, 56, 56]   16,384            True\n",
              "│    │    └─BatchNorm2d (bn1)            [4, 64, 56, 56]   [4, 64, 56, 56]   128               True\n",
              "│    │    └─ReLU (relu)                  [4, 64, 56, 56]   [4, 64, 56, 56]   --                --\n",
              "│    │    └─Conv2d (conv2)               [4, 64, 56, 56]   [4, 64, 56, 56]   36,864            True\n",
              "│    │    └─BatchNorm2d (bn2)            [4, 64, 56, 56]   [4, 64, 56, 56]   128               True\n",
              "│    │    └─ReLU (relu)                  [4, 64, 56, 56]   [4, 64, 56, 56]   --                --\n",
              "│    │    └─Conv2d (conv3)               [4, 64, 56, 56]   [4, 256, 56, 56]  16,384            True\n",
              "│    │    └─BatchNorm2d (bn3)            [4, 256, 56, 56]  [4, 256, 56, 56]  512               True\n",
              "│    │    └─ReLU (relu)                  [4, 256, 56, 56]  [4, 256, 56, 56]  --                --\n",
              "│    └─Bottleneck (2)                    [4, 256, 56, 56]  [4, 256, 56, 56]  --                True\n",
              "│    │    └─Conv2d (conv1)               [4, 256, 56, 56]  [4, 64, 56, 56]   16,384            True\n",
              "│    │    └─BatchNorm2d (bn1)            [4, 64, 56, 56]   [4, 64, 56, 56]   128               True\n",
              "│    │    └─ReLU (relu)                  [4, 64, 56, 56]   [4, 64, 56, 56]   --                --\n",
              "│    │    └─Conv2d (conv2)               [4, 64, 56, 56]   [4, 64, 56, 56]   36,864            True\n",
              "│    │    └─BatchNorm2d (bn2)            [4, 64, 56, 56]   [4, 64, 56, 56]   128               True\n",
              "│    │    └─ReLU (relu)                  [4, 64, 56, 56]   [4, 64, 56, 56]   --                --\n",
              "│    │    └─Conv2d (conv3)               [4, 64, 56, 56]   [4, 256, 56, 56]  16,384            True\n",
              "│    │    └─BatchNorm2d (bn3)            [4, 256, 56, 56]  [4, 256, 56, 56]  512               True\n",
              "│    │    └─ReLU (relu)                  [4, 256, 56, 56]  [4, 256, 56, 56]  --                --\n",
              "├─Sequential (layer2)                    [4, 256, 56, 56]  [4, 512, 28, 28]  --                True\n",
              "│    └─Bottleneck (0)                    [4, 256, 56, 56]  [4, 512, 28, 28]  --                True\n",
              "│    │    └─Conv2d (conv1)               [4, 256, 56, 56]  [4, 128, 56, 56]  32,768            True\n",
              "│    │    └─BatchNorm2d (bn1)            [4, 128, 56, 56]  [4, 128, 56, 56]  256               True\n",
              "│    │    └─ReLU (relu)                  [4, 128, 56, 56]  [4, 128, 56, 56]  --                --\n",
              "│    │    └─Conv2d (conv2)               [4, 128, 56, 56]  [4, 128, 28, 28]  147,456           True\n",
              "│    │    └─BatchNorm2d (bn2)            [4, 128, 28, 28]  [4, 128, 28, 28]  256               True\n",
              "│    │    └─ReLU (relu)                  [4, 128, 28, 28]  [4, 128, 28, 28]  --                --\n",
              "│    │    └─Conv2d (conv3)               [4, 128, 28, 28]  [4, 512, 28, 28]  65,536            True\n",
              "│    │    └─BatchNorm2d (bn3)            [4, 512, 28, 28]  [4, 512, 28, 28]  1,024             True\n",
              "│    │    └─Sequential (downsample)      [4, 256, 56, 56]  [4, 512, 28, 28]  132,096           True\n",
              "│    │    └─ReLU (relu)                  [4, 512, 28, 28]  [4, 512, 28, 28]  --                --\n",
              "│    └─Bottleneck (1)                    [4, 512, 28, 28]  [4, 512, 28, 28]  --                True\n",
              "│    │    └─Conv2d (conv1)               [4, 512, 28, 28]  [4, 128, 28, 28]  65,536            True\n",
              "│    │    └─BatchNorm2d (bn1)            [4, 128, 28, 28]  [4, 128, 28, 28]  256               True\n",
              "│    │    └─ReLU (relu)                  [4, 128, 28, 28]  [4, 128, 28, 28]  --                --\n",
              "│    │    └─Conv2d (conv2)               [4, 128, 28, 28]  [4, 128, 28, 28]  147,456           True\n",
              "│    │    └─BatchNorm2d (bn2)            [4, 128, 28, 28]  [4, 128, 28, 28]  256               True\n",
              "│    │    └─ReLU (relu)                  [4, 128, 28, 28]  [4, 128, 28, 28]  --                --\n",
              "│    │    └─Conv2d (conv3)               [4, 128, 28, 28]  [4, 512, 28, 28]  65,536            True\n",
              "│    │    └─BatchNorm2d (bn3)            [4, 512, 28, 28]  [4, 512, 28, 28]  1,024             True\n",
              "│    │    └─ReLU (relu)                  [4, 512, 28, 28]  [4, 512, 28, 28]  --                --\n",
              "│    └─Bottleneck (2)                    [4, 512, 28, 28]  [4, 512, 28, 28]  --                True\n",
              "│    │    └─Conv2d (conv1)               [4, 512, 28, 28]  [4, 128, 28, 28]  65,536            True\n",
              "│    │    └─BatchNorm2d (bn1)            [4, 128, 28, 28]  [4, 128, 28, 28]  256               True\n",
              "│    │    └─ReLU (relu)                  [4, 128, 28, 28]  [4, 128, 28, 28]  --                --\n",
              "│    │    └─Conv2d (conv2)               [4, 128, 28, 28]  [4, 128, 28, 28]  147,456           True\n",
              "│    │    └─BatchNorm2d (bn2)            [4, 128, 28, 28]  [4, 128, 28, 28]  256               True\n",
              "│    │    └─ReLU (relu)                  [4, 128, 28, 28]  [4, 128, 28, 28]  --                --\n",
              "│    │    └─Conv2d (conv3)               [4, 128, 28, 28]  [4, 512, 28, 28]  65,536            True\n",
              "│    │    └─BatchNorm2d (bn3)            [4, 512, 28, 28]  [4, 512, 28, 28]  1,024             True\n",
              "│    │    └─ReLU (relu)                  [4, 512, 28, 28]  [4, 512, 28, 28]  --                --\n",
              "│    └─Bottleneck (3)                    [4, 512, 28, 28]  [4, 512, 28, 28]  --                True\n",
              "│    │    └─Conv2d (conv1)               [4, 512, 28, 28]  [4, 128, 28, 28]  65,536            True\n",
              "│    │    └─BatchNorm2d (bn1)            [4, 128, 28, 28]  [4, 128, 28, 28]  256               True\n",
              "│    │    └─ReLU (relu)                  [4, 128, 28, 28]  [4, 128, 28, 28]  --                --\n",
              "│    │    └─Conv2d (conv2)               [4, 128, 28, 28]  [4, 128, 28, 28]  147,456           True\n",
              "│    │    └─BatchNorm2d (bn2)            [4, 128, 28, 28]  [4, 128, 28, 28]  256               True\n",
              "│    │    └─ReLU (relu)                  [4, 128, 28, 28]  [4, 128, 28, 28]  --                --\n",
              "│    │    └─Conv2d (conv3)               [4, 128, 28, 28]  [4, 512, 28, 28]  65,536            True\n",
              "│    │    └─BatchNorm2d (bn3)            [4, 512, 28, 28]  [4, 512, 28, 28]  1,024             True\n",
              "│    │    └─ReLU (relu)                  [4, 512, 28, 28]  [4, 512, 28, 28]  --                --\n",
              "├─Sequential (layer3)                    [4, 512, 28, 28]  [4, 1024, 14, 14] --                True\n",
              "│    └─Bottleneck (0)                    [4, 512, 28, 28]  [4, 1024, 14, 14] --                True\n",
              "│    │    └─Conv2d (conv1)               [4, 512, 28, 28]  [4, 256, 28, 28]  131,072           True\n",
              "│    │    └─BatchNorm2d (bn1)            [4, 256, 28, 28]  [4, 256, 28, 28]  512               True\n",
              "│    │    └─ReLU (relu)                  [4, 256, 28, 28]  [4, 256, 28, 28]  --                --\n",
              "│    │    └─Conv2d (conv2)               [4, 256, 28, 28]  [4, 256, 14, 14]  589,824           True\n",
              "│    │    └─BatchNorm2d (bn2)            [4, 256, 14, 14]  [4, 256, 14, 14]  512               True\n",
              "│    │    └─ReLU (relu)                  [4, 256, 14, 14]  [4, 256, 14, 14]  --                --\n",
              "│    │    └─Conv2d (conv3)               [4, 256, 14, 14]  [4, 1024, 14, 14] 262,144           True\n",
              "│    │    └─BatchNorm2d (bn3)            [4, 1024, 14, 14] [4, 1024, 14, 14] 2,048             True\n",
              "│    │    └─Sequential (downsample)      [4, 512, 28, 28]  [4, 1024, 14, 14] 526,336           True\n",
              "│    │    └─ReLU (relu)                  [4, 1024, 14, 14] [4, 1024, 14, 14] --                --\n",
              "│    └─Bottleneck (1)                    [4, 1024, 14, 14] [4, 1024, 14, 14] --                True\n",
              "│    │    └─Conv2d (conv1)               [4, 1024, 14, 14] [4, 256, 14, 14]  262,144           True\n",
              "│    │    └─BatchNorm2d (bn1)            [4, 256, 14, 14]  [4, 256, 14, 14]  512               True\n",
              "│    │    └─ReLU (relu)                  [4, 256, 14, 14]  [4, 256, 14, 14]  --                --\n",
              "│    │    └─Conv2d (conv2)               [4, 256, 14, 14]  [4, 256, 14, 14]  589,824           True\n",
              "│    │    └─BatchNorm2d (bn2)            [4, 256, 14, 14]  [4, 256, 14, 14]  512               True\n",
              "│    │    └─ReLU (relu)                  [4, 256, 14, 14]  [4, 256, 14, 14]  --                --\n",
              "│    │    └─Conv2d (conv3)               [4, 256, 14, 14]  [4, 1024, 14, 14] 262,144           True\n",
              "│    │    └─BatchNorm2d (bn3)            [4, 1024, 14, 14] [4, 1024, 14, 14] 2,048             True\n",
              "│    │    └─ReLU (relu)                  [4, 1024, 14, 14] [4, 1024, 14, 14] --                --\n",
              "│    └─Bottleneck (2)                    [4, 1024, 14, 14] [4, 1024, 14, 14] --                True\n",
              "│    │    └─Conv2d (conv1)               [4, 1024, 14, 14] [4, 256, 14, 14]  262,144           True\n",
              "│    │    └─BatchNorm2d (bn1)            [4, 256, 14, 14]  [4, 256, 14, 14]  512               True\n",
              "│    │    └─ReLU (relu)                  [4, 256, 14, 14]  [4, 256, 14, 14]  --                --\n",
              "│    │    └─Conv2d (conv2)               [4, 256, 14, 14]  [4, 256, 14, 14]  589,824           True\n",
              "│    │    └─BatchNorm2d (bn2)            [4, 256, 14, 14]  [4, 256, 14, 14]  512               True\n",
              "│    │    └─ReLU (relu)                  [4, 256, 14, 14]  [4, 256, 14, 14]  --                --\n",
              "│    │    └─Conv2d (conv3)               [4, 256, 14, 14]  [4, 1024, 14, 14] 262,144           True\n",
              "│    │    └─BatchNorm2d (bn3)            [4, 1024, 14, 14] [4, 1024, 14, 14] 2,048             True\n",
              "│    │    └─ReLU (relu)                  [4, 1024, 14, 14] [4, 1024, 14, 14] --                --\n",
              "│    └─Bottleneck (3)                    [4, 1024, 14, 14] [4, 1024, 14, 14] --                True\n",
              "│    │    └─Conv2d (conv1)               [4, 1024, 14, 14] [4, 256, 14, 14]  262,144           True\n",
              "│    │    └─BatchNorm2d (bn1)            [4, 256, 14, 14]  [4, 256, 14, 14]  512               True\n",
              "│    │    └─ReLU (relu)                  [4, 256, 14, 14]  [4, 256, 14, 14]  --                --\n",
              "│    │    └─Conv2d (conv2)               [4, 256, 14, 14]  [4, 256, 14, 14]  589,824           True\n",
              "│    │    └─BatchNorm2d (bn2)            [4, 256, 14, 14]  [4, 256, 14, 14]  512               True\n",
              "│    │    └─ReLU (relu)                  [4, 256, 14, 14]  [4, 256, 14, 14]  --                --\n",
              "│    │    └─Conv2d (conv3)               [4, 256, 14, 14]  [4, 1024, 14, 14] 262,144           True\n",
              "│    │    └─BatchNorm2d (bn3)            [4, 1024, 14, 14] [4, 1024, 14, 14] 2,048             True\n",
              "│    │    └─ReLU (relu)                  [4, 1024, 14, 14] [4, 1024, 14, 14] --                --\n",
              "│    └─Bottleneck (4)                    [4, 1024, 14, 14] [4, 1024, 14, 14] --                True\n",
              "│    │    └─Conv2d (conv1)               [4, 1024, 14, 14] [4, 256, 14, 14]  262,144           True\n",
              "│    │    └─BatchNorm2d (bn1)            [4, 256, 14, 14]  [4, 256, 14, 14]  512               True\n",
              "│    │    └─ReLU (relu)                  [4, 256, 14, 14]  [4, 256, 14, 14]  --                --\n",
              "│    │    └─Conv2d (conv2)               [4, 256, 14, 14]  [4, 256, 14, 14]  589,824           True\n",
              "│    │    └─BatchNorm2d (bn2)            [4, 256, 14, 14]  [4, 256, 14, 14]  512               True\n",
              "│    │    └─ReLU (relu)                  [4, 256, 14, 14]  [4, 256, 14, 14]  --                --\n",
              "│    │    └─Conv2d (conv3)               [4, 256, 14, 14]  [4, 1024, 14, 14] 262,144           True\n",
              "│    │    └─BatchNorm2d (bn3)            [4, 1024, 14, 14] [4, 1024, 14, 14] 2,048             True\n",
              "│    │    └─ReLU (relu)                  [4, 1024, 14, 14] [4, 1024, 14, 14] --                --\n",
              "│    └─Bottleneck (5)                    [4, 1024, 14, 14] [4, 1024, 14, 14] --                True\n",
              "│    │    └─Conv2d (conv1)               [4, 1024, 14, 14] [4, 256, 14, 14]  262,144           True\n",
              "│    │    └─BatchNorm2d (bn1)            [4, 256, 14, 14]  [4, 256, 14, 14]  512               True\n",
              "│    │    └─ReLU (relu)                  [4, 256, 14, 14]  [4, 256, 14, 14]  --                --\n",
              "│    │    └─Conv2d (conv2)               [4, 256, 14, 14]  [4, 256, 14, 14]  589,824           True\n",
              "│    │    └─BatchNorm2d (bn2)            [4, 256, 14, 14]  [4, 256, 14, 14]  512               True\n",
              "│    │    └─ReLU (relu)                  [4, 256, 14, 14]  [4, 256, 14, 14]  --                --\n",
              "│    │    └─Conv2d (conv3)               [4, 256, 14, 14]  [4, 1024, 14, 14] 262,144           True\n",
              "│    │    └─BatchNorm2d (bn3)            [4, 1024, 14, 14] [4, 1024, 14, 14] 2,048             True\n",
              "│    │    └─ReLU (relu)                  [4, 1024, 14, 14] [4, 1024, 14, 14] --                --\n",
              "├─Sequential (layer4)                    [4, 1024, 14, 14] [4, 2048, 7, 7]   --                True\n",
              "│    └─Bottleneck (0)                    [4, 1024, 14, 14] [4, 2048, 7, 7]   --                True\n",
              "│    │    └─Conv2d (conv1)               [4, 1024, 14, 14] [4, 512, 14, 14]  524,288           True\n",
              "│    │    └─BatchNorm2d (bn1)            [4, 512, 14, 14]  [4, 512, 14, 14]  1,024             True\n",
              "│    │    └─ReLU (relu)                  [4, 512, 14, 14]  [4, 512, 14, 14]  --                --\n",
              "│    │    └─Conv2d (conv2)               [4, 512, 14, 14]  [4, 512, 7, 7]    2,359,296         True\n",
              "│    │    └─BatchNorm2d (bn2)            [4, 512, 7, 7]    [4, 512, 7, 7]    1,024             True\n",
              "│    │    └─ReLU (relu)                  [4, 512, 7, 7]    [4, 512, 7, 7]    --                --\n",
              "│    │    └─Conv2d (conv3)               [4, 512, 7, 7]    [4, 2048, 7, 7]   1,048,576         True\n",
              "│    │    └─BatchNorm2d (bn3)            [4, 2048, 7, 7]   [4, 2048, 7, 7]   4,096             True\n",
              "│    │    └─Sequential (downsample)      [4, 1024, 14, 14] [4, 2048, 7, 7]   2,101,248         True\n",
              "│    │    └─ReLU (relu)                  [4, 2048, 7, 7]   [4, 2048, 7, 7]   --                --\n",
              "│    └─Bottleneck (1)                    [4, 2048, 7, 7]   [4, 2048, 7, 7]   --                True\n",
              "│    │    └─Conv2d (conv1)               [4, 2048, 7, 7]   [4, 512, 7, 7]    1,048,576         True\n",
              "│    │    └─BatchNorm2d (bn1)            [4, 512, 7, 7]    [4, 512, 7, 7]    1,024             True\n",
              "│    │    └─ReLU (relu)                  [4, 512, 7, 7]    [4, 512, 7, 7]    --                --\n",
              "│    │    └─Conv2d (conv2)               [4, 512, 7, 7]    [4, 512, 7, 7]    2,359,296         True\n",
              "│    │    └─BatchNorm2d (bn2)            [4, 512, 7, 7]    [4, 512, 7, 7]    1,024             True\n",
              "│    │    └─ReLU (relu)                  [4, 512, 7, 7]    [4, 512, 7, 7]    --                --\n",
              "│    │    └─Conv2d (conv3)               [4, 512, 7, 7]    [4, 2048, 7, 7]   1,048,576         True\n",
              "│    │    └─BatchNorm2d (bn3)            [4, 2048, 7, 7]   [4, 2048, 7, 7]   4,096             True\n",
              "│    │    └─ReLU (relu)                  [4, 2048, 7, 7]   [4, 2048, 7, 7]   --                --\n",
              "│    └─Bottleneck (2)                    [4, 2048, 7, 7]   [4, 2048, 7, 7]   --                True\n",
              "│    │    └─Conv2d (conv1)               [4, 2048, 7, 7]   [4, 512, 7, 7]    1,048,576         True\n",
              "│    │    └─BatchNorm2d (bn1)            [4, 512, 7, 7]    [4, 512, 7, 7]    1,024             True\n",
              "│    │    └─ReLU (relu)                  [4, 512, 7, 7]    [4, 512, 7, 7]    --                --\n",
              "│    │    └─Conv2d (conv2)               [4, 512, 7, 7]    [4, 512, 7, 7]    2,359,296         True\n",
              "│    │    └─BatchNorm2d (bn2)            [4, 512, 7, 7]    [4, 512, 7, 7]    1,024             True\n",
              "│    │    └─ReLU (relu)                  [4, 512, 7, 7]    [4, 512, 7, 7]    --                --\n",
              "│    │    └─Conv2d (conv3)               [4, 512, 7, 7]    [4, 2048, 7, 7]   1,048,576         True\n",
              "│    │    └─BatchNorm2d (bn3)            [4, 2048, 7, 7]   [4, 2048, 7, 7]   4,096             True\n",
              "│    │    └─ReLU (relu)                  [4, 2048, 7, 7]   [4, 2048, 7, 7]   --                --\n",
              "├─AdaptiveAvgPool2d (avgpool)            [4, 2048, 7, 7]   [4, 2048, 1, 1]   --                --\n",
              "├─Linear (fc)                            [4, 2048]         [4, 1000]         2,049,000         True\n",
              "============================================================================================================\n",
              "Total params: 25,557,032\n",
              "Trainable params: 25,557,032\n",
              "Non-trainable params: 0\n",
              "Total mult-adds (Units.GIGABYTES): 16.36\n",
              "============================================================================================================\n",
…
        "outputId": "c351cb38-a106-4367-919f-4d2a70b125aa"
      },
      "outputs": [
        {
          "output_type": "execute_result",
          "data": {
            "text/plain": [
              "============================================================================================================\n",
              "Layer (type (var_name))                  Input Shape       Output Shape      Param #           Trainable\n",
              "============================================================================================================\n",
              "ResNet (ResNet)                          [4, 3, 224, 224]  [4, 1000]         --                False\n",
              "├─Conv2d (conv1)                         [4, 3, 224, 224]  [4, 64, 112, 112] (9,408)           False\n",
              "├─BatchNorm2d (bn1)                      [4, 64, 112, 112] [4, 64, 112, 112] (128)             False\n",
              "├─ReLU (relu)                            [4, 64, 112, 112] [4, 64, 112, 112] --                --\n",
              "├─MaxPool2d (maxpool)                    [4, 64, 112, 112] [4, 64, 56, 56]   --                --\n",
              "├─Sequential (layer1)                    [4, 64, 56, 56]   [4, 256, 56, 56]  --                False\n",
              "│    └─Bottleneck (0)                    [4, 64, 56, 56]   [4, 256, 56, 56]  --                False\n",
              "│    │    └─Conv2d (conv1)               [4, 64, 56, 56]   [4, 64, 56, 56]   (4,096)           False\n",
              "│    │    └─BatchNorm2d (bn1)            [4, 64, 56, 56]   [4, 64, 56, 56]   (128)             False\n",
              "│    │    └─ReLU (relu)                  [4, 64, 56, 56]   [4, 64, 56, 56]   --                --\n",
              "│    │    └─Conv2d (conv2)               [4, 64, 56, 56]   [4, 64, 56, 56]   (36,864)          False\n",
              "│    │    └─BatchNorm2d (bn2)            [4, 64, 56, 56]   [4, 64, 56, 56]   (128)             False\n",
              "│    │    └─ReLU (relu)                  [4, 64, 56, 56]   [4, 64, 56, 56]   --                --\n",
              "│    │    └─Conv2d (conv3)               [4, 64, 56, 56]   [4, 256, 56, 56]  (16,384)          False\n",
              "│    │    └─BatchNorm2d (bn3)            [4, 256, 56, 56]  [4, 256, 56, 56]  (512)             False\n",
              "│    │    └─Sequential (downsample)      [4, 64, 56, 56]   [4, 256, 56, 56]  (16,896)          False\n",
              "│    │    └─ReLU (relu)                  [4, 256, 56, 56]  [4, 256, 56, 56]  --                --\n",
              "│    └─Bottleneck (1)                    [4, 256, 56, 56]  [4, 256, 56, 56]  --                False\n",
              "│    │    └─Conv2d (conv1)               [4, 256, 56, 56]  [4, 64, 56, 56]   (16,384)          False\n",
              "│    │    └─BatchNorm2d (bn1)            [4, 64, 56, 56]   [4, 64, 56, 56]   (128)             False\n",
              "│    │    └─ReLU (relu)                  [4, 64, 56, 56]   [4, 64, 56, 56]   --                --\n",
              "│    │    └─Conv2d (conv2)               [4, 64, 56, 56]   [4, 64, 56, 56]   (36,864)          False\n",
              "│    │    └─BatchNorm2d (bn2)            [4, 64, 56, 56]   [4, 64, 56, 56]   (128)             False\n",
              "│    │    └─ReLU (relu)                  [4, 64, 56, 56]   [4, 64, 56, 56]   --                --\n",
              "│    │    └─Conv2d (conv3)               [4, 64, 56, 56]   [4, 256, 56, 56]  (16,384)          False\n",
              "│    │    └─BatchNorm2d (bn3)            [4, 256, 56, 56]  [4, 256, 56, 56]  (512)             False\n",
              "│    │    └─ReLU (relu)                  [4, 256, 56, 56]  [4, 256, 56, 56]  --                --\n",
              "│    └─Bottleneck (2)                    [4, 256, 56, 56]  [4, 256, 56, 56]  --                False\n",
              "│    │    └─Conv2d (conv1)               [4, 256, 56, 56]  [4, 64, 56, 56]   (16,384)          False\n",
              "│    │    └─BatchNorm2d (bn1)            [4, 64, 56, 56]   [4, 64, 56, 56]   (128)             False\n",
              "│    │    └─ReLU (relu)                  [4, 64, 56, 56]   [4, 64, 56, 56]   --                --\n",
              "│    │    └─Conv2d (conv2)               [4, 64, 56, 56]   [4, 64, 56, 56]   (36,864)          False\n",
              "│    │    └─BatchNorm2d (bn2)            [4, 64, 56, 56]   [4, 64, 56, 56]   (128)             False\n",
              "│    │    └─ReLU (relu)                  [4, 64, 56, 56]   [4, 64, 56, 56]   --                --\n",
              "│    │    └─Conv2d (conv3)               [4, 64, 56, 56]   [4, 256, 56, 56]  (16,384)          False\n",
              "│    │    └─BatchNorm2d (bn3)            [4, 256, 56, 56]  [4, 256, 56, 56]  (512)             False\n",
              "│    │    └─ReLU (relu)                  [4, 256, 56, 56]  [4, 256, 56, 56]  --                --\n",
              "├─Sequential (layer2)                    [4, 256, 56, 56]  [4, 512, 28, 28]  --                False\n",
              "│    └─Bottleneck (0)                    [4, 256, 56, 56]  [4, 512, 28, 28]  --                False\n",
              "│    │    └─Conv2d (conv1)               [4, 256, 56, 56]  [4, 128, 56, 56]  (32,768)          False\n",
              "│    │    └─BatchNorm2d (bn1)            [4, 128, 56, 56]  [4, 128, 56, 56]  (256)             False\n",
              "│    │    └─ReLU (relu)                  [4, 128, 56, 56]  [4, 128, 56, 56]  --                --\n",
              "│    │    └─Conv2d (conv2)               [4, 128, 56, 56]  [4, 128, 28, 28]  (147,456)         False\n",
              "│    │    └─BatchNorm2d (bn2)            [4, 128, 28, 28]  [4, 128, 28, 28]  (256)             False\n",
              "│    │    └─ReLU (relu)                  [4, 128, 28, 28]  [4, 128, 28, 28]  --                --\n",
              "│    │    └─Conv2d (conv3)               [4, 128, 28, 28]  [4, 512, 28, 28]  (65,536)          False\n",
              "│    │    └─BatchNorm2d (bn3)            [4, 512, 28, 28]  [4, 512, 28, 28]  (1,024)           False\n",
              "│    │    └─Sequential (downsample)      [4, 256, 56, 56]  [4, 512, 28, 28]  (132,096)         False\n",
              "│    │    └─ReLU (relu)                  [4, 512, 28, 28]  [4, 512, 28, 28]  --                --\n",
              "│    └─Bottleneck (1)                    [4, 512, 28, 28]  [4, 512, 28, 28]  --                False\n",
              "│    │    └─Conv2d (conv1)               [4, 512, 28, 28]  [4, 128, 28, 28]  (65,536)          False\n",
              "│    │    └─BatchNorm2d (bn1)            [4, 128, 28, 28]  [4, 128, 28, 28]  (256)             False\n",
              "│    │    └─ReLU (relu)                  [4, 128, 28, 28]  [4, 128, 28, 28]  --                --\n",
              "│    │    └─Conv2d (conv2)               [4, 128, 28, 28]  [4, 128, 28, 28]  (147,456)         False\n",
              "│    │    └─BatchNorm2d (bn2)            [4, 128, 28, 28]  [4, 128, 28, 28]  (256)             False\n",
              "│    │    └─ReLU (relu)                  [4, 128, 28, 28]  [4, 128, 28, 28]  --                --\n",
              "│    │    └─Conv2d (conv3)               [4, 128, 28, 28]  [4, 512, 28, 28]  (65,536)          False\n",
              "│    │    └─BatchNorm2d (bn3)            [4, 512, 28, 28]  [4, 512, 28, 28]  (1,024)           False\n",
              "│    │    └─ReLU (relu)                  [4, 512, 28, 28]  [4, 512, 28, 28]  --                --\n",
              "│    └─Bottleneck (2)                    [4, 512, 28, 28]  [4, 512, 28, 28]  --                False\n",
              "│    │    └─Conv2d (conv1)               [4, 512, 28, 28]  [4, 128, 28, 28]  (65,536)          False\n",
              "│    │    └─BatchNorm2d (bn1)            [4, 128, 28, 28]  [4, 128, 28, 28]  (256)             False\n",
              "│    │    └─ReLU (relu)                  [4, 128, 28, 28]  [4, 128, 28, 28]  --                --\n",
              "│    │    └─Conv2d (conv2)               [4, 128, 28, 28]  [4, 128, 28, 28]  (147,456)         False\n",
              "│    │    └─BatchNorm2d (bn2)            [4, 128, 28, 28]  [4, 128, 28, 28]  (256)             False\n",
              "│    │    └─ReLU (relu)                  [4, 128, 28, 28]  [4, 128, 28, 28]  --                --\n",
              "│    │    └─Conv2d (conv3)               [4, 128, 28, 28]  [4, 512, 28, 28]  (65,536)          False\n",
              "│    │    └─BatchNorm2d (bn3)            [4, 512, 28, 28]  [4, 512, 28, 28]  (1,024)           False\n",
              "│    │    └─ReLU (relu)                  [4, 512, 28, 28]  [4, 512, 28, 28]  --                --\n",
              "│    └─Bottleneck (3)                    [4, 512, 28, 28]  [4, 512, 28, 28]  --                False\n",
              "│    │    └─Conv2d (conv1)               [4, 512, 28, 28]  [4, 128, 28, 28]  (65,536)          False\n",
              "│    │    └─BatchNorm2d (bn1)            [4, 128, 28, 28]  [4, 128, 28, 28]  (256)             False\n",
              "│    │    └─ReLU (relu)                  [4, 128, 28, 28]  [4, 128, 28, 28]  --                --\n",
              "│    │    └─Conv2d (conv2)               [4, 128, 28, 28]  [4, 128, 28, 28]  (147,456)         False\n",
              "│    │    └─BatchNorm2d (bn2)            [4, 128, 28, 28]  [4, 128, 28, 28]  (256)             False\n",
              "│    │    └─ReLU (relu)                  [4, 128, 28, 28]  [4, 128, 28, 28]  --                --\n",
              "│    │    └─Conv2d (conv3)               [4, 128, 28, 28]  [4, 512, 28, 28]  (65,536)          False\n",
              "│    │    └─BatchNorm2d (bn3)            [4, 512, 28, 28]  [4, 512, 28, 28]  (1,024)           False\n",
              "│    │    └─ReLU (relu)                  [4, 512, 28, 28]  [4, 512, 28, 28]  --                --\n",
              "├─Sequential (layer3)                    [4, 512, 28, 28]  [4, 1024, 14, 14] --                False\n",
              "│    └─Bottleneck (0)                    [4, 512, 28, 28]  [4, 1024, 14, 14] --                False\n",
              "│    │    └─Conv2d (conv1)               [4, 512, 28, 28]  [4, 256, 28, 28]  (131,072)         False\n",
              "│    │    └─BatchNorm2d (bn1)            [4, 256, 28, 28]  [4, 256, 28, 28]  (512)             False\n",
              "│    │    └─ReLU (relu)                  [4, 256, 28, 28]  [4, 256, 28, 28]  --                --\n",
              "│    │    └─Conv2d (conv2)               [4, 256, 28, 28]  [4, 256, 14, 14]  (589,824)         False\n",
              "│    │    └─BatchNorm2d (bn2)            [4, 256, 14, 14]  [4, 256, 14, 14]  (512)             False\n",
              "│    │    └─ReLU (relu)                  [4, 256, 14, 14]  [4, 256, 14, 14]  --                --\n",
              "│    │    └─Conv2d (conv3)               [4, 256, 14, 14]  [4, 1024, 14, 14] (262,144)         False\n",
              "│    │    └─BatchNorm2d (bn3)            [4, 1024, 14, 14] [4, 1024, 14, 14] (2,048)           False\n",
              "│    │    └─Sequential (downsample)      [4, 512, 28, 28]  [4, 1024, 14, 14] (526,336)         False\n",
              "│    │    └─ReLU (relu)                  [4, 1024, 14, 14] [4, 1024, 14, 14] --                --\n",
              "│    └─Bottleneck (1)                    [4, 1024, 14, 14] [4, 1024, 14, 14] --                False\n",
              "│    │    └─Conv2d (conv1)               [4, 1024, 14, 14] [4, 256, 14, 14]  (262,144)         False\n",
              "│    │    └─BatchNorm2d (bn1)            [4, 256, 14, 14]  [4, 256, 14, 14]  (512)             False\n",
              "│    │    └─ReLU (relu)                  [4, 256, 14, 14]  [4, 256, 14, 14]  --                --\n",
              "│    │    └─Conv2d (conv2)               [4, 256, 14, 14]  [4, 256, 14, 14]  (589,824)         False\n",
              "│    │    └─BatchNorm2d (bn2)            [4, 256, 14, 14]  [4, 256, 14, 14]  (512)             False\n",
              "│    │    └─ReLU (relu)                  [4, 256, 14, 14]  [4, 256, 14, 14]  --                --\n",
              "│    │    └─Conv2d (conv3)               [4, 256, 14, 14]  [4, 1024, 14, 14] (262,144)         False\n",
              "│    │    └─BatchNorm2d (bn3)            [4, 1024, 14, 14] [4, 1024, 14, 14] (2,048)           False\n",
              "│    │    └─ReLU (relu)                  [4, 1024, 14, 14] [4, 1024, 14, 14] --                --\n",
              "│    └─Bottleneck (2)                    [4, 1024, 14, 14] [4, 1024, 14, 14] --                False\n",
              "│    │    └─Conv2d (conv1)               [4, 1024, 14, 14] [4, 256, 14, 14]  (262,144)         False\n",
              "│    │    └─BatchNorm2d (bn1)            [4, 256, 14, 14]  [4, 256, 14, 14]  (512)             False\n",
              "│    │    └─ReLU (relu)                  [4, 256, 14, 14]  [4, 256, 14, 14]  --                --\n",
              "│    │    └─Conv2d (conv2)               [4, 256, 14, 14]  [4, 256, 14, 14]  (589,824)         False\n",
              "│    │    └─BatchNorm2d (bn2)            [4, 256, 14, 14]  [4, 256, 14, 14]  (512)             False\n",
              "│    │    └─ReLU (relu)                  [4, 256, 14, 14]  [4, 256, 14, 14]  --                --\n",
              "│    │    └─Conv2d (conv3)               [4, 256, 14, 14]  [4, 1024, 14, 14] (262,144)         False\n",
              "│    │    └─BatchNorm2d (bn3)            [4, 1024, 14, 14] [4, 1024, 14, 14] (2,048)           False\n",
              "│    │    └─ReLU (relu)                  [4, 1024, 14, 14] [4, 1024, 14, 14] --                --\n",
              "│    └─Bottleneck (3)                    [4, 1024, 14, 14] [4, 1024, 14, 14] --                False\n",
              "│    │    └─Conv2d (conv1)               [4, 1024, 14, 14] [4, 256, 14, 14]  (262,144)         False\n",
              "│    │    └─BatchNorm2d (bn1)            [4, 256, 14, 14]  [4, 256, 14, 14]  (512)             False\n",
              "│    │    └─ReLU (relu)                  [4, 256, 14, 14]  [4, 256, 14, 14]  --                --\n",
              "│    │    └─Conv2d (conv2)               [4, 256, 14, 14]  [4, 256, 14, 14]  (589,824)         False\n",
              "│    │    └─BatchNorm2d (bn2)            [4, 256, 14, 14]  [4, 256, 14, 14]  (512)             False\n",
              "│    │    └─ReLU (relu)                  [4, 256, 14, 14]  [4, 256, 14, 14]  --                --\n",
              "│    │    └─Conv2d (conv3)               [4, 256, 14, 14]  [4, 1024, 14, 14] (262,144)         False\n",
              "│    │    └─BatchNorm2d (bn3)            [4, 1024, 14, 14] [4, 1024, 14, 14] (2,048)           False\n",
              "│    │    └─ReLU (relu)                  [4, 1024, 14, 14] [4, 1024, 14, 14] --                --\n",
              "│    └─Bottleneck (4)                    [4, 1024, 14, 14] [4, 1024, 14, 14] --                False\n",
              "│    │    └─Conv2d (conv1)               [4, 1024, 14, 14] [4, 256, 14, 14]  (262,144)         False\n",
              "│    │    └─BatchNorm2d (bn1)            [4, 256, 14, 14]  [4, 256, 14, 14]  (512)             False\n",
              "│    │    └─ReLU (relu)                  [4, 256, 14, 14]  [4, 256, 14, 14]  --                --\n",
              "│    │    └─Conv2d (conv2)               [4, 256, 14, 14]  [4, 256, 14, 14]  (589,824)         False\n",
              "│    │    └─BatchNorm2d (bn2)            [4, 256, 14, 14]  [4, 256, 14, 14]  (512)             False\n",
              "│    │    └─ReLU (relu)                  [4, 256, 14, 14]  [4, 256, 14, 14]  --                --\n",
              "│    │    └─Conv2d (conv3)               [4, 256, 14, 14]  [4, 1024, 14, 14] (262,144)         False\n",
              "│    │    └─BatchNorm2d (bn3)            [4, 1024, 14, 14] [4, 1024, 14, 14] (2,048)           False\n",
              "│    │    └─ReLU (relu)                  [4, 1024, 14, 14] [4, 1024, 14, 14] --                --\n",
              "│    └─Bottleneck (5)                    [4, 1024, 14, 14] [4, 1024, 14, 14] --                False\n",
              "│    │    └─Conv2d (conv1)               [4, 1024, 14, 14] [4, 256, 14, 14]  (262,144)         False\n",
              "│    │    └─BatchNorm2d (bn1)            [4, 256, 14, 14]  [4, 256, 14, 14]  (512)             False\n",
              "│    │    └─ReLU (relu)                  [4, 256, 14, 14]  [4, 256, 14, 14]  --                --\n",
              "│    │    └─Conv2d (conv2)               [4, 256, 14, 14]  [4, 256, 14, 14]  (589,824)         False\n",
              "│    │    └─BatchNorm2d (bn2)            [4, 256, 14, 14]  [4, 256, 14, 14]  (512)             False\n",
              "│    │    └─ReLU (relu)                  [4, 256, 14, 14]  [4, 256, 14, 14]  --                --\n",
              "│    │    └─Conv2d (conv3)               [4, 256, 14, 14]  [4, 1024, 14, 14] (262,144)         False\n",
              "│    │    └─BatchNorm2d (bn3)            [4, 1024, 14, 14] [4, 1024, 14, 14] (2,048)           False\n",
              "│    │    └─ReLU (relu)                  [4, 1024, 14, 14] [4, 1024, 14, 14] --                --\n",
              "├─Sequential (layer4)                    [4, 1024, 14, 14] [4, 2048, 7, 7]   --                False\n",
              "│    └─Bottleneck (0)                    [4, 1024, 14, 14] [4, 2048, 7, 7]   --                False\n",
              "│    │    └─Conv2d (conv1)               [4, 1024, 14, 14] [4, 512, 14, 14]  (524,288)         False\n",
              "│    │    └─BatchNorm2d (bn1)            [4, 512, 14, 14]  [4, 512, 14, 14]  (1,024)           False\n",
              "│    │    └─ReLU (relu)                  [4, 512, 14, 14]  [4, 512, 14, 14]  --                --\n",
              "│    │    └─Conv2d (conv2)               [4, 512, 14, 14]  [4, 512, 7, 7]    (2,359,296)       False\n",
              "│    │    └─BatchNorm2d (bn2)            [4, 512, 7, 7]    [4, 512, 7, 7]    (1,024)           False\n",
              "│    │    └─ReLU (relu)                  [4, 512, 7, 7]    [4, 512, 7, 7]    --                --\n",
              "│    │    └─Conv2d (conv3)               [4, 512, 7, 7]    [4, 2048, 7, 7]   (1,048,576)       False\n",
              "│    │    └─BatchNorm2d (bn3)            [4, 2048, 7, 7]   [4, 2048, 7, 7]   (4,096)           False\n",
              "│    │    └─Sequential (downsample)      [4, 1024, 14, 14] [4, 2048, 7, 7]   (2,101,248)       False\n",
              "│    │    └─ReLU (relu)                  [4, 2048, 7, 7]   [4, 2048, 7, 7]   --                --\n",
              "│    └─Bottleneck (1)                    [4, 2048, 7, 7]   [4, 2048, 7, 7]   --                False\n",
              "│    │    └─Conv2d (conv1)               [4, 2048, 7, 7]   [4, 512, 7, 7]    (1,048,576)       False\n",
              "│    │    └─BatchNorm2d (bn1)            [4, 512, 7, 7]    [4, 512, 7, 7]    (1,024)           False\n",
              "│    │    └─ReLU (relu)                  [4, 512, 7, 7]    [4, 512, 7, 7]    --                --\n",
              "│    │    └─Conv2d (conv2)               [4, 512, 7, 7]    [4, 512, 7, 7]    (2,359,296)       False\n",
              "│    │    └─BatchNorm2d (bn2)            [4, 512, 7, 7]    [4, 512, 7, 7]    (1,024)           False\n",
              "│    │    └─ReLU (relu)                  [4, 512, 7, 7]    [4, 512, 7, 7]    --                --\n",
              "│    │    └─Conv2d (conv3)               [4, 512, 7, 7]    [4, 2048, 7, 7]   (1,048,576)       False\n",
              "│    │    └─BatchNorm2d (bn3)            [4, 2048, 7, 7]   [4, 2048, 7, 7]   (4,096)           False\n",
              "│    │    └─ReLU (relu)                  [4, 2048, 7, 7]   [4, 2048, 7, 7]   --                --\n",
              "│    └─Bottleneck (2)                    [4, 2048, 7, 7]   [4, 2048, 7, 7]   --                False\n",
              "│    │    └─Conv2d (conv1)               [4, 2048, 7, 7]   [4, 512, 7, 7]    (1,048,576)       False\n",
              "│    │    └─BatchNorm2d (bn1)            [4, 512, 7, 7]    [4, 512, 7, 7]    (1,024)           False\n",
              "│    │    └─ReLU (relu)                  [4, 512, 7, 7]    [4, 512, 7, 7]    --                --\n",
              "│    │    └─Conv2d (conv2)               [4, 512, 7, 7]    [4, 512, 7, 7]    (2,359,296)       False\n",
              "│    │    └─BatchNorm2d (bn2)            [4, 512, 7, 7]    [4, 512, 7, 7]    (1,024)           False\n",
              "│    │    └─ReLU (relu)                  [4, 512, 7, 7]    [4, 512, 7, 7]    --                --\n",
              "│    │    └─Conv2d (conv3)               [4, 512, 7, 7]    [4, 2048, 7, 7]   (1,048,576)       False\n",
              "│    │    └─BatchNorm2d (bn3)            [4, 2048, 7, 7]   [4, 2048, 7, 7]   (4,096)           False\n",
              "│    │    └─ReLU (relu)                  [4, 2048, 7, 7]   [4, 2048, 7, 7]   --                --\n",
              "├─AdaptiveAvgPool2d (avgpool)            [4, 2048, 7, 7]   [4, 2048, 1, 1]   --                --\n",
              "├─Linear (fc)                            [4, 2048]         [4, 1000]         (2,049,000)       False\n",
              "============================================================================================================\n",
              "Total params: 25,557,032\n",
              "Trainable params: 0\n",
              "Non-trainable params: 25,557,032\n",
…
        "outputId": "57f95ce8-15e8-4d61-f5fd-adafc333e173"
      },
      "outputs": [
        {
          "output_type": "execute_result",
          "data": {
            "text/plain": [
              "============================================================================================================\n",
              "Layer (type (var_name))                  Input Shape       Output Shape      Param #           Trainable\n",
              "============================================================================================================\n",
              "ResNet (ResNet)                          [4, 3, 224, 224]  [4, 5]            --                Partial\n",
              "├─Conv2d (conv1)                         [4, 3, 224, 224]  [4, 64, 112, 112] (9,408)           False\n",
              "├─BatchNorm2d (bn1)                      [4, 64, 112, 112] [4, 64, 112, 112] (128)             False\n",
              "├─ReLU (relu)                            [4, 64, 112, 112] [4, 64, 112, 112] --                --\n",
              "├─MaxPool2d (maxpool)                    [4, 64, 112, 112] [4, 64, 56, 56]   --                --\n",
              "├─Sequential (layer1)                    [4, 64, 56, 56]   [4, 256, 56, 56]  --                False\n",
              "│    └─Bottleneck (0)                    [4, 64, 56, 56]   [4, 256, 56, 56]  --                False\n",
              "│    │    └─Conv2d (conv1)               [4, 64, 56, 56]   [4, 64, 56, 56]   (4,096)           False\n",
              "│    │    └─BatchNorm2d (bn1)            [4, 64, 56, 56]   [4, 64, 56, 56]   (128)             False\n",
              "│    │    └─ReLU (relu)                  [4, 64, 56, 56]   [4, 64, 56, 56]   --                --\n",
              "│    │    └─Conv2d (conv2)               [4, 64, 56, 56]   [4, 64, 56, 56]   (36,864)          False\n",
              "│    │    └─BatchNorm2d (bn2)            [4, 64, 56, 56]   [4, 64, 56, 56]   (128)             False\n",
              "│    │    └─ReLU (relu)                  [4, 64, 56, 56]   [4, 64, 56, 56]   --                --\n",
              "│    │    └─Conv2d (conv3)               [4, 64, 56, 56]   [4, 256, 56, 56]  (16,384)          False\n",
              "│    │    └─BatchNorm2d (bn3)            [4, 256, 56, 56]  [4, 256, 56, 56]  (512)             False\n",
              "│    │    └─Sequential (downsample)      [4, 64, 56, 56]   [4, 256, 56, 56]  (16,896)          False\n",
              "│    │    └─ReLU (relu)                  [4, 256, 56, 56]  [4, 256, 56, 56]  --                --\n",
              "│    └─Bottleneck (1)                    [4, 256, 56, 56]  [4, 256, 56, 56]  --                False\n",
              "│    │    └─Conv2d (conv1)               [4, 256, 56, 56]  [4, 64, 56, 56]   (16,384)          False\n",
              "│    │    └─BatchNorm2d (bn1)            [4, 64, 56, 56]   [4, 64, 56, 56]   (128)             False\n",
              "│    │    └─ReLU (relu)                  [4, 64, 56, 56]   [4, 64, 56, 56]   --                --\n",
              "│    │    └─Conv2d (conv2)               [4, 64, 56, 56]   [4, 64, 56, 56]   (36,864)          False\n",
              "│    │    └─BatchNorm2d (bn2)            [4, 64, 56, 56]   [4, 64, 56, 56]   (128)             False\n",
              "│    │    └─ReLU (relu)                  [4, 64, 56, 56]   [4, 64, 56, 56]   --                --\n",
              "│    │    └─Conv2d (conv3)               [4, 64, 56, 56]   [4, 256, 56, 56]  (16,384)          False\n",
              "│    │    └─BatchNorm2d (bn3)            [4, 256, 56, 56]  [4, 256, 56, 56]  (512)             False\n",
              "│    │    └─ReLU (relu)                  [4, 256, 56, 56]  [4, 256, 56, 56]  --                --\n",
              "│    └─Bottleneck (2)                    [4, 256, 56, 56]  [4, 256, 56, 56]  --                False\n",
              "│    │    └─Conv2d (conv1)               [4, 256, 56, 56]  [4, 64, 56, 56]   (16,384)          False\n",
              "│    │    └─BatchNorm2d (bn1)            [4, 64, 56, 56]   [4, 64, 56, 56]   (128)             False\n",
              "│    │    └─ReLU (relu)                  [4, 64, 56, 56]   [4, 64, 56, 56]   --                --\n",
              "│    │    └─Conv2d (conv2)               [4, 64, 56, 56]   [4, 64, 56, 56]   (36,864)          False\n",
              "│    │    └─BatchNorm2d (bn2)            [4, 64, 56, 56]   [4, 64, 56, 56]   (128)             False\n",
              "│    │    └─ReLU (relu)                  [4, 64, 56, 56]   [4, 64, 56, 56]   --                --\n",
              "│    │    └─Conv2d (conv3)               [4, 64, 56, 56]   [4, 256, 56, 56]  (16,384)          False\n",
              "│    │    └─BatchNorm2d (bn3)            [4, 256, 56, 56]  [4, 256, 56, 56]  (512)             False\n",
              "│    │    └─ReLU (relu)                  [4, 256, 56, 56]  [4, 256, 56, 56]  --                --\n",
              "├─Sequential (layer2)                    [4, 256, 56, 56]  [4, 512, 28, 28]  --                False\n",
              "│    └─Bottleneck (0)                    [4, 256, 56, 56]  [4, 512, 28, 28]  --                False\n",
              "│    │    └─Conv2d (conv1)               [4, 256, 56, 56]  [4, 128, 56, 56]  (32,768)          False\n",
              "│    │    └─BatchNorm2d (bn1)            [4, 128, 56, 56]  [4, 128, 56, 56]  (256)             False\n",
              "│    │    └─ReLU (relu)                  [4, 128, 56, 56]  [4, 128, 56, 56]  --                --\n",
              "│    │    └─Conv2d (conv2)               [4, 128, 56, 56]  [4, 128, 28, 28]  (147,456)         False\n",
              "│    │    └─BatchNorm2d (bn2)            [4, 128, 28, 28]  [4, 128, 28, 28]  (256)             False\n",
              "│    │    └─ReLU (relu)                  [4, 128, 28, 28]  [4, 128, 28, 28]  --                --\n",
              "│    │    └─Conv2d (conv3)               [4, 128, 28, 28]  [4, 512, 28, 28]  (65,536)          False\n",
              "│    │    └─BatchNorm2d (bn3)            [4, 512, 28, 28]  [4, 512, 28, 28]  (1,024)           False\n",
              "│    │    └─Sequential (downsample)      [4, 256, 56, 56]  [4, 512, 28, 28]  (132,096)         False\n",
              "│    │    └─ReLU (relu)                  [4, 512, 28, 28]  [4, 512, 28, 28]  --                --\n",
              "│    └─Bottleneck (1)                    [4, 512, 28, 28]  [4, 512, 28, 28]  --                False\n",
              "│    │    └─Conv2d (conv1)               [4, 512, 28, 28]  [4, 128, 28, 28]  (65,536)          False\n",
              "│    │    └─BatchNorm2d (bn1)            [4, 128, 28, 28]  [4, 128, 28, 28]  (256)             False\n",
              "│    │    └─ReLU (relu)                  [4, 128, 28, 28]  [4, 128, 28, 28]  --                --\n",
              "│    │    └─Conv2d (conv2)               [4, 128, 28, 28]  [4, 128, 28, 28]  (147,456)         False\n",
              "│    │    └─BatchNorm2d (bn2)            [4, 128, 28, 28]  [4, 128, 28, 28]  (256)             False\n",
              "│    │    └─ReLU (relu)                  [4, 128, 28, 28]  [4, 128, 28, 28]  --                --\n",
              "│    │    └─Conv2d (conv3)               [4, 128, 28, 28]  [4, 512, 28, 28]  (65,536)          False\n",
              "│    │    └─BatchNorm2d (bn3)            [4, 512, 28, 28]  [4, 512, 28, 28]  (1,024)           False\n",
              "│    │    └─ReLU (relu)                  [4, 512, 28, 28]  [4, 512, 28, 28]  --                --\n",
              "│    └─Bottleneck (2)                    [4, 512, 28, 28]  [4, 512, 28, 28]  --                False\n",
              "│    │    └─Conv2d (conv1)               [4, 512, 28, 28]  [4, 128, 28, 28]  (65,536)          False\n",
              "│    │    └─BatchNorm2d (bn1)            [4, 128, 28, 28]  [4, 128, 28, 28]  (256)             False\n",
              "│    │    └─ReLU (relu)                  [4, 128, 28, 28]  [4, 128, 28, 28]  --                --\n",
              "│    │    └─Conv2d (conv2)               [4, 128, 28, 28]  [4, 128, 28, 28]  (147,456)         False\n",
              "│    │    └─BatchNorm2d (bn2)            [4, 128, 28, 28]  [4, 128, 28, 28]  (256)             False\n",
              "│    │    └─ReLU (relu)                  [4, 128, 28, 28]  [4, 128, 28, 28]  --                --\n",
              "│    │    └─Conv2d (conv3)               [4, 128, 28, 28]  [4, 512, 28, 28]  (65,536)          False\n",
              "│    │    └─BatchNorm2d (bn3)            [4, 512, 28, 28]  [4, 512, 28, 28]  (1,024)           False\n",
              "│    │    └─ReLU (relu)                  [4, 512, 28, 28]  [4, 512, 28, 28]  --                --\n",
              "│    └─Bottleneck (3)                    [4, 512, 28, 28]  [4, 512, 28, 28]  --                False\n",
              "│    │    └─Conv2d (conv1)               [4, 512, 28, 28]  [4, 128, 28, 28]  (65,536)          False\n",
              "│    │    └─BatchNorm2d (bn1)            [4, 128, 28, 28]  [4, 128, 28, 28]  (256)             False\n",
              "│    │    └─ReLU (relu)                  [4, 128, 28, 28]  [4, 128, 28, 28]  --                --\n",
              "│    │    └─Conv2d (conv2)               [4, 128, 28, 28]  [4, 128, 28, 28]  (147,456)         False\n",
              "│    │    └─BatchNorm2d (bn2)            [4, 128, 28, 28]  [4, 128, 28, 28]  (256)             False\n",
              "│    │    └─ReLU (relu)                  [4, 128, 28, 28]  [4, 128, 28, 28]  --                --\n",
              "│    │    └─Conv2d (conv3)               [4, 128, 28, 28]  [4, 512, 28, 28]  (65,536)          False\n",
              "│    │    └─BatchNorm2d (bn3)            [4, 512, 28, 28]  [4, 512, 28, 28]  (1,024)           False\n",
              "│    │    └─ReLU (relu)                  [4, 512, 28, 28]  [4, 512, 28, 28]  --                --\n",
              "├─Sequential (layer3)                    [4, 512, 28, 28]  [4, 1024, 14, 14] --                False\n",
              "│    └─Bottleneck (0)                    [4, 512, 28, 28]  [4, 1024, 14, 14] --                False\n",
              "│    │    └─Conv2d (conv1)               [4, 512, 28, 28]  [4, 256, 28, 28]  (131,072)         False\n",
              "│    │    └─BatchNorm2d (bn1)            [4, 256, 28, 28]  [4, 256, 28, 28]  (512)             False\n",
              "│    │    └─ReLU (relu)                  [4, 256, 28, 28]  [4, 256, 28, 28]  --                --\n",
              "│    │    └─Conv2d (conv2)               [4, 256, 28, 28]  [4, 256, 14, 14]  (589,824)         False\n",
              "│    │    └─BatchNorm2d (bn2)            [4, 256, 14, 14]  [4, 256, 14, 14]  (512)             False\n",
              "│    │    └─ReLU (relu)                  [4, 256, 14, 14]  [4, 256, 14, 14]  --                --\n",
              "│    │    └─Conv2d (conv3)               [4, 256, 14, 14]  [4, 1024, 14, 14] (262,144)         False\n",
              "│    │    └─BatchNorm2d (bn3)            [4, 1024, 14, 14] [4, 1024, 14, 14] (2,048)           False\n",
              "│    │    └─Sequential (downsample)      [4, 512, 28, 28]  [4, 1024, 14, 14] (526,336)         False\n",
              "│    │    └─ReLU (relu)                  [4, 1024, 14, 14] [4, 1024, 14, 14] --                --\n",
              "│    └─Bottleneck (1)                    [4, 1024, 14, 14] [4, 1024, 14, 14] --                False\n",
              "│    │    └─Conv2d (conv1)               [4, 1024, 14, 14] [4, 256, 14, 14]  (262,144)         False\n",
              "│    │    └─BatchNorm2d (bn1)            [4, 256, 14, 14]  [4, 256, 14, 14]  (512)             False\n",
              "│    │    └─ReLU (relu)                  [4, 256, 14, 14]  [4, 256, 14, 14]  --                --\n",
              "│    │    └─Conv2d (conv2)               [4, 256, 14, 14]  [4, 256, 14, 14]  (589,824)         False\n",
              "│    │    └─BatchNorm2d (bn2)            [4, 256, 14, 14]  [4, 256, 14, 14]  (512)             False\n",
              "│    │    └─ReLU (relu)                  [4, 256, 14, 14]  [4, 256, 14, 14]  --                --\n",
              "│    │    └─Conv2d (conv3)               [4, 256, 14, 14]  [4, 1024, 14, 14] (262,144)         False\n",
              "│    │    └─BatchNorm2d (bn3)            [4, 1024, 14, 14] [4, 1024, 14, 14] (2,048)           False\n",
              "│    │    └─ReLU (relu)                  [4, 1024, 14, 14] [4, 1024, 14, 14] --                --\n",
              "│    └─Bottleneck (2)                    [4, 1024, 14, 14] [4, 1024, 14, 14] --                False\n",
              "│    │    └─Conv2d (conv1)               [4, 1024, 14, 14] [4, 256, 14, 14]  (262,144)         False\n",
              "│    │    └─BatchNorm2d (bn1)            [4, 256, 14, 14]  [4, 256, 14, 14]  (512)             False\n",
              "│    │    └─ReLU (relu)                  [4, 256, 14, 14]  [4, 256, 14, 14]  --                --\n",
              "│    │    └─Conv2d (conv2)               [4, 256, 14, 14]  [4, 256, 14, 14]  (589,824)         False\n",
              "│    │    └─BatchNorm2d (bn2)            [4, 256, 14, 14]  [4, 256, 14, 14]  (512)             False\n",
              "│    │    └─ReLU (relu)                  [4, 256, 14, 14]  [4, 256, 14, 14]  --                --\n",
              "│    │    └─Conv2d (conv3)               [4, 256, 14, 14]  [4, 1024, 14, 14] (262,144)         False\n",
              "│    │    └─BatchNorm2d (bn3)            [4, 1024, 14, 14] [4, 1024, 14, 14] (2,048)           False\n",
              "│    │    └─ReLU (relu)                  [4, 1024, 14, 14] [4, 1024, 14, 14] --                --\n",
              "│    └─Bottleneck (3)                    [4, 1024, 14, 14] [4, 1024, 14, 14] --                False\n",
              "│    │    └─Conv2d (conv1)               [4, 1024, 14, 14] [4, 256, 14, 14]  (262,144)         False\n",
              "│    │    └─BatchNorm2d (bn1)            [4, 256, 14, 14]  [4, 256, 14, 14]  (512)             False\n",
              "│    │    └─ReLU (relu)                  [4, 256, 14, 14]  [4, 256, 14, 14]  --                --\n",
              "│    │    └─Conv2d (conv2)               [4, 256, 14, 14]  [4, 256, 14, 14]  (589,824)         False\n",
              "│    │    └─BatchNorm2d (bn2)            [4, 256, 14, 14]  [4, 256, 14, 14]  (512)             False\n",
              "│    │    └─ReLU (relu)                  [4, 256, 14, 14]  [4, 256, 14, 14]  --                --\n",
              "│    │    └─Conv2d (conv3)               [4, 256, 14, 14]  [4, 1024, 14, 14] (262,144)         False\n",
              "│    │    └─BatchNorm2d (bn3)            [4, 1024, 14, 14] [4, 1024, 14, 14] (2,048)           False\n",
              "│    │    └─ReLU (relu)                  [4, 1024, 14, 14] [4, 1024, 14, 14] --                --\n",
              "│    └─Bottleneck (4)                    [4, 1024, 14, 14] [4, 1024, 14, 14] --                False\n",
              "│    │    └─Conv2d (conv1)               [4, 1024, 14, 14] [4, 256, 14, 14]  (262,144)         False\n",
              "│    │    └─BatchNorm2d (bn1)            [4, 256, 14, 14]  [4, 256, 14, 14]  (512)             False\n",
              "│    │    └─ReLU (relu)                  [4, 256, 14, 14]  [4, 256, 14, 14]  --                --\n",
              "│    │    └─Conv2d (conv2)               [4, 256, 14, 14]  [4, 256, 14, 14]  (589,824)         False\n",
              "│    │    └─BatchNorm2d (bn2)            [4, 256, 14, 14]  [4, 256, 14, 14]  (512)             False\n",
              "│    │    └─ReLU (relu)                  [4, 256, 14, 14]  [4, 256, 14, 14]  --                --\n",
              "│    │    └─Conv2d (conv3)               [4, 256, 14, 14]  [4, 1024, 14, 14] (262,144)         False\n",
              "│    │    └─BatchNorm2d (bn3)            [4, 1024, 14, 14] [4, 1024, 14, 14] (2,048)           False\n",
              "│    │    └─ReLU (relu)                  [4, 1024, 14, 14] [4, 1024, 14, 14] --                --\n",
              "│    └─Bottleneck (5)                    [4, 1024, 14, 14] [4, 1024, 14, 14] --                False\n",
              "│    │    └─Conv2d (conv1)               [4, 1024, 14, 14] [4, 256, 14, 14]  (262,144)         False\n",
              "│    │    └─BatchNorm2d (bn1)            [4, 256, 14, 14]  [4, 256, 14, 14]  (512)             False\n",
              "│    │    └─ReLU (relu)                  [4, 256, 14, 14]  [4, 256, 14, 14]  --                --\n",
              "│    │    └─Conv2d (conv2)               [4, 256, 14, 14]  [4, 256, 14, 14]  (589,824)         False\n",
              "│    │    └─BatchNorm2d (bn2)            [4, 256, 14, 14]  [4, 256, 14, 14]  (512)             False\n",
              "│    │    └─ReLU (relu)                  [4, 256, 14, 14]  [4, 256, 14, 14]  --                --\n",
              "│    │    └─Conv2d (conv3)               [4, 256, 14, 14]  [4, 1024, 14, 14] (262,144)         False\n",
              "│    │    └─BatchNorm2d (bn3)            [4, 1024, 14, 14] [4, 1024, 14, 14] (2,048)           False\n",
              "│    │    └─ReLU (relu)                  [4, 1024, 14, 14] [4, 1024, 14, 14] --                --\n",
              "├─Sequential (layer4)                    [4, 1024, 14, 14] [4, 2048, 7, 7]   --                False\n",
              "│    └─Bottleneck (0)                    [4, 1024, 14, 14] [4, 2048, 7, 7]   --                False\n",
              "│    │    └─Conv2d (conv1)               [4, 1024, 14, 14] [4, 512, 14, 14]  (524,288)         False\n",
              "│    │    └─BatchNorm2d (bn1)            [4, 512, 14, 14]  [4, 512, 14, 14]  (1,024)           False\n",
              "│    │    └─ReLU (relu)                  [4, 512, 14, 14]  [4, 512, 14, 14]  --                --\n",
              "│    │    └─Conv2d (conv2)               [4, 512, 14, 14]  [4, 512, 7, 7]    (2,359,296)       False\n",
              "│    │    └─BatchNorm2d (bn2)            [4, 512, 7, 7]    [4, 512, 7, 7]    (1,024)           False\n",
              "│    │    └─ReLU (relu)                  [4, 512, 7, 7]    [4, 512, 7, 7]    --                --\n",
              "│    │    └─Conv2d (conv3)               [4, 512, 7, 7]    [4, 2048, 7, 7]   (1,048,576)       False\n",
              "│    │    └─BatchNorm2d (bn3)            [4, 2048, 7, 7]   [4, 2048, 7, 7]   (4,096)           False\n",
              "│    │    └─Sequential (downsample)      [4, 1024, 14, 14] [4, 2048, 7, 7]   (2,101,248)       False\n",
              "│    │    └─ReLU (relu)                  [4, 2048, 7, 7]   [4, 2048, 7, 7]   --                --\n",
              "│    └─Bottleneck (1)                    [4, 2048, 7, 7]   [4, 2048, 7, 7]   --                False\n",
              "│    │    └─Conv2d (conv1)               [4, 2048, 7, 7]   [4, 512, 7, 7]    (1,048,576)       False\n",
              "│    │    └─BatchNorm2d (bn1)            [4, 512, 7, 7]    [4, 512, 7, 7]    (1,024)           False\n",
              "│    │    └─ReLU (relu)                  [4, 512, 7, 7]    [4, 512, 7, 7]    --                --\n",
              "│    │    └─Conv2d (conv2)               [4, 512, 7, 7]    [4, 512, 7, 7]    (2,359,296)       False\n",
              "│    │    └─BatchNorm2d (bn2)            [4, 512, 7, 7]    [4, 512, 7, 7]    (1,024)           False\n",
              "│    │    └─ReLU (relu)                  [4, 512, 7, 7]    [4, 512, 7, 7]    --                --\n",
              "│    │    └─Conv2d (conv3)               [4, 512, 7, 7]    [4, 2048, 7, 7]   (1,048,576)       False\n",
              "│    │    └─BatchNorm2d (bn3)            [4, 2048, 7, 7]   [4, 2048, 7, 7]   (4,096)           False\n",
              "│    │    └─ReLU (relu)                  [4, 2048, 7, 7]   [4, 2048, 7, 7]   --                --\n",
              "│    └─Bottleneck (2)                    [4, 2048, 7, 7]   [4, 2048, 7, 7]   --                False\n",
              "│    │    └─Conv2d (conv1)               [4, 2048, 7, 7]   [4, 512, 7, 7]    (1,048,576)       False\n",
              "│    │    └─BatchNorm2d (bn1)            [4, 512, 7, 7]    [4, 512, 7, 7]    (1,024)           False\n",
              "│    │    └─ReLU (relu)                  [4, 512, 7, 7]    [4, 512, 7, 7]    --                --\n",
              "│    │    └─Conv2d (conv2)               [4, 512, 7, 7]    [4, 512, 7, 7]    (2,359,296)       False\n",
              "│    │    └─BatchNorm2d (bn2)            [4, 512, 7, 7]    [4, 512, 7, 7]    (1,024)           False\n",
              "│    │    └─ReLU (relu)                  [4, 512, 7, 7]    [4, 512, 7, 7]    --                --\n",
              "│    │    └─Conv2d (conv3)               [4, 512, 7, 7]    [4, 2048, 7, 7]   (1,048,576)       False\n",
              "│    │    └─BatchNorm2d (bn3)            [4, 2048, 7, 7]   [4, 2048, 7, 7]   (4,096)           False\n",
              "│    │    └─ReLU (relu)                  [4, 2048, 7, 7]   [4, 2048, 7, 7]   --                --\n",
              "├─AdaptiveAvgPool2d (avgpool)            [4, 2048, 7, 7]   [4, 2048, 1, 1]   --                --\n",
              "├─Linear (fc)                            [4, 2048]         [4, 5]            10,245            True\n",
              "============================================================================================================\n",
              "Total params: 23,518,277\n",
              "Trainable params: 10,245\n",
              "Non-trainable params: 23,508,032\n",
              "Total mult-adds (Units.GIGABYTES): 16.35\n",
              "============================================================================================================\n",
…
